models/v0.2-Gaze/model-Gaze-v0.2-Gaze-epoch-16-loss-16.5713.pth (torch, 157674 bytes, 30 tensors)

weight f4 [100, 36]
0.009889597 -0.122864515 0.08652245 0.11637099 -0.12051268 0.17306589 -0.023647098 -0.06837641
-0.00051743386 -0.06679955 0.1264184 -0.03890782 -0.123082824 -0.06867316 0.052816726 -0.09077877
0.18719883 -0.04775372 0.021839205 0.17635489 0.04892156 -0.12763652 -0.1533203 0.12744126
-0.1438362 -0.15124804 -0.123884395 0.07472289 -0.014244847 0.0991178 -0.14422509 -0.042754054
-0.04999321 -0.095118515 -0.04397038 -0.19006166 0.050305966 -0.095272064 -0.08322394 0.044525307
-0.053571492 0.08422687 0.10497663 -0.009716242 -0.21720278 0.08990762 0.022927335 0.11624963
0.07938047 -0.13819736 0.10772355 0.060474552 0.12398981 0.038292255 0.11784508 0.078258865
0.04116123 -0.16568825 0.03499129 -0.16949762 0.08133817 -0.18485025 -0.01362338 0.10446709
-0.14471303 0.18143068 -0.07696405 0.11539161 0.09714189 0.18638913 -0.03834161 -0.18980189
-0.06701235 -0.013260846 -0.0055927653 -0.07882226 0.17473751 0.10129666 -0.010916071 0.12144281
-0.053955495 0.043510586 0.07727602 -0.015159482 0.17756394 -0.017933771 0.10916054 0.009849472
-0.1634569 -0.044182476 -0.019913929 0.078142226 0.010162389 0.10629823 0.07141355 -0.06633923
0.10059144 0.16788799 -0.037902165 -0.06938551 -0.12453663 0.17184831 -0.081044674 -0.062415496
-0.03708259 0.043823566 -0.041709624 -0.0007859737 -0.07260626 0.030737586 0.036998305 -0.05313849
-0.18428166 -0.059847996 0.02693308 -0.12369815 0.01976941 0.04846948 0.08581702 -0.059529815
0.08472976 0.10390021 0.03900356 0.00958323 -0.14640546 0.0332725 -0.031012595 -0.06365268
0.015174722 -0.1082865 0.06963217 0.02882286 0.014670182 0.13760574 0.096088044 0.16652869
0.18733957 0.07390047 0.019164963 -0.09018992 -0.027860064 0.16277248 -0.14101945 0.0052150628
0.018315518 -0.109476075 0.08520234 -0.10885153 0.016522761 0.0918768 -0.13914423 0.034082707
0.0012474658 0.033838633 0.087396994 -0.089083605 -0.12453988 -0.11245256 -0.066195145 0.08924611
-0.06604216 0.013289986 -0.039737348 -0.10683117 -0.1428548 -0.18819919 -0.031454567 0.059613474
0.045777857 0.13739456 0.12500297 0.14482935 0.15104106 -0.080441676 -0.044555187 0.14699045
-0.11640649 -0.103672504 0.13916303 0.13943692 -0.11527746 0.08110599 -0.008788405 0.14341804
0.05118565 0.0018360202 0.0025033664 0.07714381 -0.03854504 -0.11954808 0.12557235 0.025712928
0.038707383 -0.056875218 -0.014299192 0.14448263 -0.042105723 0.013858803 -0.096854 -0.12224506
0.013981264 0.1614934 -0.073554456 -0.023576973 0.12031122 -0.15967971 0.10976706 -0.06631785
0.072944716 -0.050801396 -0.08650012 -0.05446534 -0.12432043 -0.07649561 0.016724259 -0.04717489
-0.046192948 0.13755934 -0.044573326 0.045801394 -0.064068496 0.06229373 -0.13140568 0.16147006
-0.07760157 -0.13826701 0.18364061 -0.06606213 -0.00480009 0.042410772 -0.003274886 -0.13815725
0.059851453 0.11340632 -0.03602786 -0.110883504 0.0011443876 -0.14745402 0.16250338 0.059059773
0.04583159 0.07544134 0.027985299 0.11155957 0.11261466 -0.16507572 -0.089325786 0.0694101
-0.052959926 0.0806675 0.0022228993 -0.18660133 -0.0020678027 0.013362987 -0.055824146 0.08796017
00000000: fa07 223c 64a0 fbbd af32 b13d ea53 ee3d
00000010: 5acf f6bd 2f38 313e 8fb7 c1bc ee08 8cbd
00000020: 66a4 07ba 34ce 88bd d373 013e ce5d 1fbd
00000030: d912 fcbd 84a4 8cbd 5a56 583d 38ea b9bd
00000040: 0db1 3f3e 6899 43bd 22e8 b23c 6096 343e
00000050: f961 483d 26b3 02be ffff 1cbe f67f 023e
00000060: cc49 13be c4e0 1abe 1ab7 fdbd 5108 993d
00000070: 3863 69bc 46fe ca3d beaf 13be e01e 2fbd
00000080: aec5 4cbd 7fcd c2bd 491a 34bd 869f 42be
00000090: a10d 4e3d 001e c3bd 5071 aabd 2b60 363d
000000a0: c86d 5bbd 237f ac3d fdfd d63d df30 1fbc
000000b0: 686a 5ebe 7c21 b83d 1bd2 bb3c 4914 ee3d
000000c0: 3a92 a23d 9c83 0dbe 2a9e dc3d 2ab4 773d
000000d0: 5fee fd3d 57d8 1c3d c358 f13d 2f46 a03d
000000e0: ae98 283d 2eaa 29be 0753 0f3d c990 2dbe
000000f0: a094 a63d 6249 3dbe 9934 5fbc d7f2 d53d
00000100: a72f 14be f7c8 393e 549f 9dbd 7052 ec3d
00000110: 54f2 c63d cbdc 3e3e 180c 1dbd 6d5b 42be
00000120: c53d 89bd 0544 59bc 8443 b7bb 916d a1bd
00000130: 64ee 323e a074 cf3d 52d9 32bc 02b7 f83d
00000140: 7000 5dbd 2838 323d e442 9e3d 7a5f 78bc
00000150: 52d3 353e d8e9 92bc 908f df3d ae5f 213c
00000160: 3f61 27be aff8 34bd 8922 a3bc 0809 a03d
00000170: 2680 263c e3b2 d93d 4441 923d dddc 87bd
00000180: e302 ce3d d4ea 2b3e 4d3f 1bbd fe19 8ebd
00000190: 100d ffbd 01f9 2f3e c0fa a5bd 64a7 7fbd
000001a0: eae3 17bd 5780 333d b6d7 2abd cd09 4eba
000001b0: 97b2 94bd 64cd fb3c 898b 173d bfa7 59bd
000001c0: 55b4 3cbe 2c23 75bd c3a2 dc3c 7555 fdbd
000001d0: 75f3 a13c ef87 463d d5c0 af3d 89d5 73bd
000001e0: cc86 ad3d a2c9 d43d 32c2 1f3d fb02 1d3c
000001f0: 50eb 15be bf48 083d 200e febc 565c 82bd
00000200: 669f 783c 50c5 ddbd 509b 8e3d eb1d ec3c
00000210: 345b 703c 85e8 0c3e cfc9 c43d 7f86 2a3e
00000220: f2d5 3f3e 2159 973d d7ff 9c3c 7eb5 b8bd
00000230: ca3a e4bc d4ad 263e 6767 10be 1ee3 aa3b
00000240: 6d0a 963c fe34 e0bd 907e ae3d 8ded debd
00000250: be5a 873c e729 bc3d d37b 0ebe 4f9a 0b3d
00000260: 0282 a33a 619a 0a3d 32fd b23d 7771 b6bd
00000270: c40e ffbd 874d e6bd 5291 87bd aac6 b63d
00000280: 1d41 87bd 3ebe 593c a1c3 22bd 4dca dabd
00000290: 8748 12be 4ab7 40be 81d6 00bd 422d 743d
000002a0: 9081 3b3d 29b1 0c3e c700 003e 254e 143e
000002b0: 82aa 1a3e 9bbe a4bd 807f 36bd aa84 163e
000002c0: 8766 eebd 4052 d4bd c180 0e3e 8dc8 0e3e
000002d0: 9716 ecbd e61a a63d 3efd 0fbc 2edc 123e
000002e0: 0ba8 513d 9da6 f03a 850f 243b 93fd 9d3d
000002f0: 67e1 1dbd a0d5 f4bd 0a96 003e eba3 d23c
00000300: a28b 1e3d fdf5 68bd 2847 6abc 41f3 133e
00000310: 0d77 2cbd 0810 633c 645b c6bd 9e5b fabd
00000320: ac11 653c 875e 253e b8a3 96bd 7f24 c1bc
00000330: bb65 f63d 1483 23be 8dcd e03d a7d1 87bd
00000340: 0a64 953d 2015 50bd fa26 b1bd 0c17 5fbd
00000350: b69b febd bba9 9cbd 5001 893c 753a 41bd
00000360: d134 3dbd 5bdc 0c3e 8592 36bd 3e9a 3b3d
00000370: 5836 83bd b627 7f3d 368f 06be 6858 253e
00000380: 92ed 9ebd de95 0dbe 490c 3c3e 954b 87bd
00000390: 134a 9dbb ebb6 2d3d 789f 56bb 1879 0dbe
000003a0: cc26 753d 9341 e83d f391 13bd e416 e3bd
000003b0: 47ff 953a 30fe 16be 4967 263e a9e8 713d
000003c0: e8b9 3b3d fd80 9a3d 6d41 e53c 5879 e43d
000003d0: 84a2 e63d 9c09 29be 70f0 b6bd e226 8e3d
000003e0: 82ec 58bd 0135 a53d 10ae 113b 6b14 3fbe
000003f0: f983 07bb 6ef0 5a3c dca7 64bd 7624 b43d

bias f4 [100]
0.091205426 -0.12683138 -0.014617808 0.104957744 0.08897981 0.17442477 0.18845822 0.137169
-0.0675501 -0.11533445 0.0672645 0.18870434 0.12706761 -0.093173996 0.13489012 -0.1569163
0.07711087 -0.10541946 0.17405021 0.11825487 0.07809574 0.19677883 0.10970858 0.111908615
-0.031625994 0.013093442 -0.0153288655 -0.072428994 0.15737191 0.10898035 0.17520648 -0.18645677
0.12772845 0.08230482 0.11164136 0.14528593 0.036206085 -0.0853806 -0.07992493 0.10177421
-0.027384585 0.07249316 0.13306737 -0.018756958 -0.0061451397 -0.09557676 0.11322368 -0.08416535
0.1551352 0.14182334 0.18107583 0.15865438 0.13812508 -0.071160436 0.0023980779 0.0070017423
0.104421094 0.04504211 0.036015604 -0.08563168 0.05256826 -0.073884025 0.0983943 0.22714251
-0.016099147 0.08430031 0.004867641 0.00044108386 -0.08267405 0.14572908 0.21015395 0.12073671
-0.073039345 0.0343682 -0.06469084 0.18575938 -0.044671997 -0.118632086 0.10845735 0.12680984
0.10791184 0.018846383 0.049153022 0.0024558548 -0.004634262 0.08293606 0.03347415 0.17159359
0.09510556 -0.06105021 0.031586643 0.12298299 -0.00809573 0.037523262 0.109080635 -0.031736232
0.18432996 -0.031656798 -0.085438445 0.012662785
00000000: e9c9 ba3d 16e0 01be 887f 6fbc 16f4 d63d
00000010: 0c3b b63d 689c 323e 31fb 403e 0876 0c3e
00000020: b557 8abd 7834 ecbd f8c1 893d b63b 413e
00000030: 031e 023e 02d2 bebd a320 0a3e abae 20be
00000040: 4eec 9d3d 28e6 d7bd 383a 323e 9c2f f23d
00000050: a9f0 9f3d 6480 493e e4ae e03d 5830 e53d
00000060: 428a 01bd e085 563c ec25 7bbc a755 94bd
00000070: 1a26 213e 1731 df3d 5469 333e 86ee 3ebe
00000080: 3fcb 023e 6e8f a83d 3aa4 e43d d6c5 143e
00000090: d54c 143d 06dc aebd afaf a3bd ff6e d03d
000000a0: a355 e0bc 4b77 943d d042 083e 31a8 99bc
000000b0: 2b5d c9bb c0bd c3bd d1e1 e73d e25e acbd
000000c0: c3db 1e3e 233a 113e f16b 393e 4b76 223e
000000d0: a970 0d3e 90bc 91bd 1229 1d3b df6e e53b
000000e0: bada d53d 137e 383d 1985 133d aa5f afbd
000000f0: d151 573d 8250 97bd f382 c93d 0c98 683e
00000100: 5ce2 83bc a4a5 ac3d bb80 9f3b 4641 e739
00000110: 0351 a9bd 013a 153e 9932 573e cf44 f73d
00000120: a795 95bd abc5 0c3d a27c 84bd b537 3e3e
00000130: fcf9 36bd 61f5 f2bd e31e de3d 70da 013e
00000140: e200 dd3d bb63 9a3c ae54 493d 68f2 203b
00000150: 02db 97bb 62da a93d 311c 093d 3bb6 2f3e
00000160: b4c6 c23d c90f 7abd ff60 013d 82de fb3d
00000170: f4a3 04bc feb1 193d ab65 df3d dafd 01bd
00000180: fec0 3c3e 8faa 01bd 5afa aebd 9277 4f3c

weight f4 [36]
0.94901544 0.90873903 0.89766204 0.8132636 0.9415754 0.83588374 0.8588019 0.86537474
0.9040018 0.90690684 0.8954658 0.9211333 0.9398759 0.8997823 0.80279726 0.88720506
1.0457684 1.0012714 1.044097 0.99610543 1.0895275 1.0112345 1.0848336 0.9731977
1.0137914 1.0090936 1.0934045 1.0015364 1.0226436 1.0393593 1.0608387 0.9864368
1.1665778 1.1585599 1.0403249 1.0363877
00000000: adf2 723f 1fa3 683f 2ecd 653f 0b32 503f
00000010: 160b 713f 7afc 553f 71da 5b3f 3389 5d3f
00000020: a96c 673f 0c2b 683f 3f3d 653f 64cf 6b3f
00000030: b59b 703f 2258 663f 1f84 4d3f df1f 633f
00000040: bddb 853f a929 803f f8a4 853f c400 7f3f
00000050: a375 8b3f 2270 813f d4db 8a3f 7c23 793f
00000060: ebc3 813f fb29 813f aef4 8b3f 5832 803f
00000070: fce5 823f ba09 853f 90c9 873f 1f87 7c3f
00000080: 6c52 953f b14b 943f 5e29 853f 5aa8 843f

bias f4 [36]
-0.046515293 0.09829709 0.027748719 -0.058075365 -0.11398361 -0.08552006 -0.060863137 0.11612138
-0.0173153 0.013194112 0.0671399 -0.0616398 0.046387557 -0.015792822 -0.1783206 0.09467104
-0.036380474 -0.01101739 -0.07136781 0.049242366 0.077385016 -0.04086415 -0.027281385 -0.018033586
0.029988369 -0.017412093 -0.039309733 0.0023513874 -0.014687036 -0.05159431 0.027938666 0.0066564023
-0.116173595 -0.07997403 0.0528619 0.03839441
00000000: d286 3ebd fc4f c93d 4851 e33c 6fe0 6dbd
00000010: 3d70 e9bd 2425 afbd a04b 79bd 0cd1 ed3d
00000020: d1d8 8dbc 1e2c 583c a580 893d 047a 7cbd
00000030: e100 3e3d f35f 81bc ad99 36be e4e2 c13d
00000040: b103 15bd 4882 34bc 4929 92bd 5db2 493d
00000050: 097c 9e3d 2b61 27bd 367d dfbc 2cbb 93bc
00000060: 2baa f53c cea3 8ebc 3e03 21bd bc19 1a3b
00000070: e5a1 70bc 8e54 53bd a1df e43c f31d da3b
00000080: 6cec edbd 6dc9 a3bd b885 583d 7543 1d3d

running_mean f4 [36]
0.5684897 0.80361104 0.7173759 0.56361294 1.3353401 0.4678939 1.8429962 0.6226666
1.9763839 0.77716994 1.814109 0.9515762 1.3161291 1.0798154 0.7712139 0.98078084
0.8254385 0.6731655 0.93631494 0.4042191 1.1990098 0.29366192 1.4596404 0.40625703
1.5655324 0.67604744 1.4546565 0.94499385 1.1919615 1.055551 0.9313311 0.942956
0.003081897 0.019249618 1.1920229 0.6529741
00000000: 8a88 113f 74b9 4d3f f2a5 373f f048 103f
00000010: 6dec aa3f ca8f ef3e 4de7 eb3f 1467 1f3f
00000020: 26fa fc3f 9cf4 463f b934 e83f 7f9a 733f
00000030: eb76 a83f 6437 8a3f 466e 453f 7414 7b3f
00000040: f04f 533f 9354 2c3f 56b2 6f3f cef5 ce3e
00000050: 2779 993f db5a 963e 7fd5 ba3f ec00 d03e
00000060: 5e63 c83f 7211 2d3f 2f32 ba3f 1eeb 713f
00000070: 3292 983f 4c1c 873f b76b 6e3f 9065 713f
00000080: a7f9 493b 60b1 9d3c 3594 983f 5029 273f

running_var f4 [36]
0.012085236 0.020221531 0.02050797 0.009968218 0.03972839 0.025476923 0.02181712 0.013090039
0.012054007 0.034673832 0.0193096 0.024326677 0.033121046 0.013416084 0.020072665 0.019466873
0.06805812 0.016093502 0.07056243 0.016303925 0.07391341 0.016749324 0.07610414 0.016499173
0.07571883 0.016379522 0.07302708 0.0171301 0.069738284 0.017631708 0.067734964 0.016920855
0.07513727 0.056491114 0.02637016 0.048774857
00000000: 2701 463c a0a7 a53c 5500 a83c bd51 233c
00000010: 3cba 223d fbb4 d03c d1b9 b23c 9a77 563c
00000020: 2b7e 453c 2606 0e3d 2b2f 9e3c bd48 c73c
00000030: efa9 073d 23cf 5b3c 6e6f a43c fe78 9f3c
00000040: 0e62 8b3d 85d6 833c 0983 903d cf8f 853c
00000050: ea5f 973d e135 893c 7ddc 9b3d 4629 873c
00000060: 7912 9b3d 592e 863c 398f 953d 6c54 8c3c
00000070: f2d2 8e3d 5f70 903c a1b8 8a3d 9b9d 8a3c
00000080: 92e1 993d 3a63 673d 3c06 d83c 25c8 473d

weight f4 [100, 100]
0.06846152 0.023504676 0.06880707 -0.074058376 0.053068276 0.022559233 0.10647797 -0.050206643
0.06915929 -0.024519432 -0.12008866 0.15618059 0.044538375 0.047554832 0.009243027 0.041854102
-0.123056054 -0.062263634 0.07560709 0.099054314 -0.083136804 0.10282879 0.0002313924 -0.06791412
-0.08945714 0.057644725 0.069433935 0.031812243 0.10498819 -0.006760965 0.014689649 -0.009996627
-0.016910568 -0.04516751 0.0053621894 0.088837095 0.08896878 -0.10868753 0.06566476 -0.036977537
0.009049029 -0.03525333 -0.11089012 -0.06008457 -0.043332465 0.03731192 0.072360046 -0.054713637
0.018304443 0.09504958 0.05696599 -0.036291797 -0.1363856 -0.101215445 0.022237169 0.049472693
-0.06801162 0.03057976 -0.04672562 -0.051817205 -0.049620196 0.01979538 -0.03837943 -0.07308079
0.013578394 -0.07240279 0.1218101 0.057653166 0.010929395 -0.076394886 0.011559815 -0.0693861
-0.067252055 0.03609015 0.022633983 -0.08300595 0.035066444 -0.06492272 -0.045632802 -0.006881901
0.065396085 0.013245987 0.026458342 0.059222747 -0.027795583 0.07622981 -0.036529284 0.0040458357
0.031151956 -0.06824245 0.0016511179 0.036922537 -0.05774709 0.061591674 -0.03457937 0.077726595
0.017776595 0.0022426806 -0.06657519 -0.09101162 0.09120745 0.1030617 0.03472872 0.03822256
-6.716795e-05 -0.079920106 0.058939856 -0.036081906 -0.085641 0.061333664 -0.06583457 0.038895346
-0.07850987 -0.023424707 -0.123802714 0.08501894 0.057512585 -0.057809282 0.06659374 0.025198799
-0.024659162 -0.040531807 -0.013842512 0.089595 -0.047325045 0.08805611 -0.0710803 -0.055513356
-0.03179841 0.018131297 -0.06469506 -0.06406175 0.08090629 0.0472187 0.06444634 0.0028697317
-0.05528742 -0.067701414 0.009559759 -0.036689132 -0.027847901 0.02125974 -0.053980898 0.09443001
-0.10267056 -0.04865136 0.13870473 0.1059379 0.039182547 -0.09171475 -0.02146126 0.10588512
0.04755567 -0.065969124 -0.0060577444 0.05390311 0.091548376 -0.033401594 0.07917932 -0.0155456895
0.029947357 -0.024593296 0.031622432 -0.04529433 -0.03769866 0.04995021 0.046881773 -0.07257598
0.013374746 0.003311836 -0.051987056 -0.036533922 0.07302168 -0.038092148 0.09254273 0.05058895
-0.08855106 0.04747399 0.12820901 0.08291222 -0.035833318 0.06862264 0.014741478 -0.013575533
-0.082443334 -0.027656794 -0.050491687 0.0125886155 0.09998496 0.12899041 0.02452842 0.011080033
0.04948731 -0.10384228 0.07732762 0.10389315 0.0018252459 -0.07908066 -0.033237044 -0.11721412
-0.03394715 -0.11593815 0.052197408 0.092226185 0.019406157 -0.039881196 0.007834911 0.044994093
0.1253784 -0.022808842 0.07334912 -0.025361085 -0.019468002 -0.047417942 -0.053535677 -0.039922606
-0.08190665 0.03907349 0.06275496 -0.09948758 -0.07054186 -0.022810522 -0.03109126 -0.098541
-0.05960833 -0.044448942 0.05799635 0.07283821 -0.011350053 -0.047009375 0.037168756 0.0026250896
0.008652988 -0.004607003 -0.06026763 -0.13248447 -0.0665168 0.07933738 -0.036029793 0.008742497
0.07848043 0.0023118935 0.009108346 -0.098558046 0.096058 0.011795439 -0.10277934 0.07664366
-0.022027818 0.00053915725 0.05961081 -0.0879224 -0.01122515 -0.03750217 0.06283531 0.051654316
00000000: 8e35 8c3d e18c c03c b9ea 8c3d ebab 97bd
00000010: 1f5e 593d 24ce b83c 1f11 da3d 7ba5 4dbd
00000020: 63a3 8d3d fadc c8bc 0bf1 f5bd ceed 1f3e
00000030: df6d 363d dbc8 423d 1170 173c 356f 2b3d
00000040: d004 fcbd 2708 7fbd e4d7 9a3d fddc ca3d
00000050: a143 aabd e797 d23d eda1 7239 8f16 8bbd
00000060: 4e35 b7bd e01c 6c3d 6133 8e3d 8e4d 023d
00000070: 0c04 d73d 168b ddbb dbac 703c e5c8 23bc
00000080: 0888 8abc 9101 39bd 4eb5 af3b 39f0 b53d
00000090: 4435 b63d 9197 debd 3f7b 863d c275 17bd
000000a0: 6142 143c cc65 10bd 5c1a e3bd 3d1b 76bd
000000b0: 627d 31bd 62d4 183d 8131 943d 681b 60bd
000000c0: 33f3 953c 5ba9 c23d 2c55 693d b5a6 14bd
000000d0: aba8 0bbe 0b4a cfbd b92a b63c e1a3 4a3d
000000e0: ad49 8bbd 6882 fa3c 5d63 3fbd 473e 54bd
000000f0: 8c3e 4bbd ec29 a23c c033 1dbd 62ab 95bd
00000100: ea77 5e3c ea47 94bd 9377 f93d ba25 6c3d
00000110: 3511 333c ec74 9cbd 6165 3d3c 4d1a 8ebd
00000120: 72bb 89bd 44d3 133d e76a b93c 06ff a9bd
00000130: d5a1 0f3d 34f6 84bd 76e9 3abd 9281 e1bb
00000140: 62ee 853d b205 593c 2abf d83c 8d93 723d
00000150: 90b3 e3bc 601e 9c3d bb9f 15bd ee92 843b
00000160: 6332 ff3c b3c2 8bbd 536a d83a 163c 173d
00000170: 3688 6cbd 8d47 7c3d 19a3 0dbd 1f2f 9f3d
00000180: 39a0 913c f0f9 123b 9358 88bd 4d64 babd
00000190: f9ca ba3d 0312 d33d b43f 0e3d 428f 1c3d
000001a0: 85dc 8cb8 27ad a3bd eb6a 713d 9fca 13bd
000001b0: 8c64 afbd 0239 7b3d 46d4 86bd ba50 1f3d
000001c0: c8c9 a0bd 2ce5 bfbc 478c fdbd 691e ae3d
000001d0: 5192 6b3d 6dc9 6cbd 4c62 883d b66d ce3c
000001e0: 0302 cabc ae04 26bd b4cb 62bc 957d b73d
000001f0: e8d7 41bd c356 b43d 8c92 91bd f961 63bd
00000200: 0d3f 02bd 1688 943c d87e 84bd cf32 83bd
00000210: 32b2 a53d 6568 413d 71fc 833d 1c12 3c3b
00000220: 1075 62bd 0aa7 8abd 89a0 1c3c 5847 16bd
00000230: 4821 e4bc e828 ae3c 131b 5dbd 8564 c13d
00000240: f144 d2bd a646 47bd 9d08 0e3e f8f5 d83d
00000250: e17d 203d f1d4 bbbd 86cf afbc 4cda d83d
00000260: bcc9 423d d21a 87bd 0b80 c6bb 82c9 5c3d
00000270: b77d bb3d 1cd0 08bd c428 a23d 59b3 7ebc
00000280: 2954 f53c e177 c9bc 8686 013d 8c86 39bd
00000290: e969 1abd 9798 4c3d 1a07 403d b7a2 94bd
000002a0: c021 5b3c 630b 593b 61f0 54bd 98a4 15bd
000002b0: 648c 953d 8306 1cbd 0b87 bd3d 5c36 4f3d
000002c0: 425a b5bd 1674 423d 3949 033e e2cd a93d
000002d0: f5c5 12bd 078a 8c3d 3d86 713c ea6b 5ebc
000002e0: 0dd8 a8bd 8090 e2bc 5fd0 4ebd 7b40 4e3c
000002f0: eac4 cc3d 1016 043e d3ef c83c 0789 353c
00000300: 35b3 4a3d 43ab d4bd f15d 9e3d efc5 d43d
00000310: 173d ef3a 0bf5 a1bd 9123 08bd f50d f0bd
00000320: 2b0c 0bbd fb70 edbd f3cc 553d 15e1 bc3d
00000330: a9f9 9e3c 775a 23bd 005e 003c ba4b 383d
00000340: 3263 003e 9cd9 babc 1038 963d 0dc2 cfbc
00000350: 5c7b 9fbc 5139 42bd 3a48 5bbd e385 23bd
00000360: acbe a7bd 860b 203d ac85 803d 25c0 cbbd
00000370: 4078 90bd 22dd babc 19b3 febc ddcf c9bd
00000380: dd27 74bd 1810 36bd 958d 6d3d 332c 953d
00000390: 93f5 39bc e78c 40bd 443e 183d b209 2c3b
000003a0: 43c5 0d3c 58f6 96bb 31db 76bd 02aa 07be
000003b0: f639 88bd a37b a23d fa93 13bd b13c 0f3c
000003c0: 59ba a03d 2383 173b 2c3b 153c cdd8 c9bd
000003d0: 0fba c43d a841 413c fa7d d2bd 5af7 9c3d
000003e0: af73 b4bc 3b56 0d3a 772a 743d a910 b4bd
000003f0: b1e9 37bc e09b 19bd cdaf 803d 7a93 533d

bias f4 [100]
0.11303539 -0.09396479 0.05639689 -0.042788748 0.042855363 0.02668405 -0.23337214 -0.044468485
0.14935598 -0.058729246 0.10678081 -0.022144444 0.038508803 0.004702846 0.13694507 0.11237432
-0.10326927 0.052524183 -0.07791398 0.10970224 -0.018767038 0.058756087 0.0009262481 0.12953648
-0.06824116 0.064416334 0.108874395 0.103349686 0.042447966 -0.04381949 -0.07058196 -0.08112081
0.079692185 -0.03272365 0.018809306 0.046200573 -0.058978472 0.10522864 0.0685927 -0.07912439
0.011651561 -0.075999476 -0.026323771 -0.07991288 0.080479935 0.07883574 -0.091693185 -0.06264639
-0.16206068 0.007298829 -0.03685219 -0.10187496 -0.044647068 0.0073493584 0.10486758 0.20650867
0.0067845937 -0.024635792 0.09665354 0.09250677 0.016589168 -0.040730927 -0.09326979 -0.021465167
0.086098365 0.018126933 0.013283915 0.044625744 0.06253744 0.09635729 0.19632784 -0.08273025
-0.10665766 -0.106557675 0.14529577 0.08873737 -0.044726565 -0.042917356 -0.03864635 -0.06383596
0.08747371 -0.04514988 -0.006336309 -0.08004462 -0.06353724 -0.031943586 0.059615675 -0.07831713
0.046005048 -0.0819313 0.0688668 0.06957895 0.07259657 -0.07400303 0.06264552 0.06098401
0.06584308 -0.0066017546 -0.039856058 -0.058321
00000000: 197f e73d 9d70 c0bd 6d00 673d 4143 2fbd
00000010: 1b89 2f3d 8298 da3c 1bf9 6ebe 9624 36bd
00000020: c6f0 183e 148e 70bd e6af da3d 4468 b5bc
00000030: 68bb 1d3d 551a 9a3b 543b 0c3e 8224 e63d
00000040: d77e d3bd 9923 573d 5d91 9fbd 91ab e03d
00000050: 55bd 99bc 39aa 703d 75cf 723a 36a5 043e
00000060: 05c2 8bbd b6ec 833d 8af9 de3d 00a9 d33d
00000070: ebdd 2d3d 117c 33bd 468d 90bd ab22 a6bd
00000080: a835 a33d 3c09 06bd f915 9a3c d03c 3d3d
00000090: 6993 71bd 1d82 d73d 547a 8c3d f80b a2bd
000000a0: 30e6 3e3c 9da5 9bbd f3a4 d7bc 5da9 a3bd
000000b0: aad2 a43d a274 a13d a3c9 bbbd c04c 80bd
000000c0: 3cf3 25be 042b ef3b 52f2 16bd d2a3 d0bd
000000d0: d8df 36bd e3d2 f03b d0c4 d63d 0277 533e
000000e0: 4c51 de3b 00d1 c9bc 4bf2 c53d 3074 bd3d
000000f0: 02e6 873c 79d5 26bd 3b04 bfbd b8d7 afbc
00000100: 5754 b03d ef7e 943c c7a4 593c 7cc9 363d
00000110: a113 803d f956 c53d 2a0a 493e 7a6e a9bd
00000120: 556f dabd e93a dabd 6ac8 143e f0bb b53d
00000130: 3433 37bd 1cca 2fbd a34b 1ebd 6ebc 82bd
00000140: 6b25 b33d 15ef 38bd d0a0 cfbb 6fee a3bd
00000150: d01f 82bd 47d7 02bd 912f 743d bb64 a0bd
00000160: ca6f 3c3d 99cb a7bd 090a 8d3d 697f 8e3d
00000170: 83ad 943d e78e 97bd 4b4c 803d 5fca 793d
00000180: bdd8 863d 8853 d8bb 1b40 23bd 00e2 6ebd

weight f4 [100]
0.94258666 1.0317901 0.8482882 0.96396184 1.0228963 0.96556973 0.9898545 0.89653605
0.9929115 1.010883 1.0262601 0.99033254 1.0260206 0.9009064 0.9766328 0.9426744
1.1343281 0.9490483 0.9932242 1.0374352 0.96241695 1.0045834 0.99251527 1.0148156
0.9765418 0.95878947 0.9244876 0.952949 1.0911556 0.9477745 0.98598623 0.9879882
0.99135494 1.126088 1.0361283 1.0645885 0.9871659 1.0028081 0.93347436 0.9890374
0.9621802 1.0306764 0.98482823 1.0069668 1.0396307 0.9870852 1.0766779 0.98932695
0.95348716 1.0308663 0.98477346 0.9438799 1.0303867 1.0146081 0.97939736 0.9450975
0.97263074 1.0444404 0.99866265 0.9115943 0.8899095 1.0119855 0.93585557 1.0255034
0.9776268 0.9571186 0.97770303 1.0175747 1.0025849 0.9740227 0.909541 0.903173
1.0161716 1.079521 1.0202962 0.9573865 0.88739336 0.97451055 1.0168406 0.9903383
0.9740147 0.9686916 0.9923882 0.9712052 0.94920546 0.8490677 0.9176509 0.89336735
0.9738887 1.0612272 0.95228547 0.9861367 0.9961147 1.0049137 0.9262317 0.92735994
1.0115973 0.91316545 0.983449 0.92107546
00000000: 5c4d 713f b311 843f 6a29 593f 34c6 763f
00000010: 44ee 823f 942f 773f 1b67 7d3f 6383 653f
00000020: 732f 7e3f 9d64 813f 7e5c 833f 6f86 7d3f
00000030: a554 833f cda1 663f 9b04 7a3f 1c53 713f
00000040: aa31 913f d4f4 723f f143 7e3f adca 843f
00000050: f560 763f 3096 803f 7b15 7e3f 7ae5 813f
00000060: a5fe 793f 3a73 753f 38ab 6c3f 77f4 733f
00000070: fdaa 8b3f 5aa1 723f 9869 7c3f cbec 7c3f
00000080: 70c9 7d3f a723 903f da9f 843f 7044 883f
00000090: e8b6 7c3f 045c 803f 2df8 6e3f 8e31 7d3f
000000a0: 7151 763f 34ed 833f b41d 7c3f 4ae4 803f
000000b0: 9e12 853f 9eb1 7c3f 95d0 893f 8844 7d3f
000000c0: bc17 743f 6df3 833f 1d1a 7c3f 1da2 713f
000000d0: b6e3 833f aede 813f c9b9 7a3f e9f1 713f
000000e0: 54fe 783f 39b0 853f 5ba8 7f3f 3e5e 693f
000000f0: 1cd1 633f be88 813f 3b94 6f3f b243 833f
00000100: c045 7a3f b905 753f bf4a 7a3f e33f 823f
00000110: b454 803f 8d59 793f aed7 683f 5936 673f
00000120: e911 823f be2d 8a3f 1199 823f 4817 753f
00000130: 362c 633f 8679 793f d527 823f d086 7d3f
00000140: 0759 793f 2cfc 773f 270d 7e3f e7a0 783f
00000150: 21ff 723f 805c 593f 2beb 6a3f b9b3 643f
00000160: c550 793f 4bd6 873f fbc8 733f 7473 7c3f
00000170: 5f01 7f3f 03a1 803f 851d 6d3f 7667 6d3f
00000180: 057c 813f 36c5 693f 50c3 7b3f 9acb 6b3f

bias f4 [100]
0.004669058 -0.08668699 -0.01425495 -0.0036311145 0.008129503 0.025168443 -0.008310341 -0.109943695
-0.047004797 0.05259749 0.0029667465 0.045953076 -0.04453594 -0.024985041 0.01021531 -0.0614646
0.1853106 -0.039174054 -0.05490005 0.06549032 -0.0601538 0.09822354 -0.023682918 -0.09622633
-0.014107412 -0.11203079 -0.06101087 -0.008125802 0.040465865 -0.0954717 0.11036872 -0.07731168
0.08157758 0.0409718 0.026049016 0.024626339 0.041308533 -0.08946245 0.031286333 -0.025739195
-0.04765851 -0.077782944 0.011900709 -0.10162124 0.02080719 0.03583761 -0.0455987 -0.0036111176
0.10719204 -0.042966433 0.027349068 0.06926466 0.054164857 -0.05674329 -0.09256444 0.06364644
-0.12359224 0.04697724 0.03703224 -0.045501698 -0.0043556676 0.067529716 -0.0106245065 0.06808825
0.01811727 -0.012664118 0.015849464 -0.13648003 -0.064472064 -0.0054126144 -0.03329046 -0.06732364
-0.06424807 -0.050832767 -0.08017776 -0.09486177 0.05052095 -0.038330887 0.034774512 -0.06307373
0.12189416 -0.04739367 0.026290845 0.048577666 0.07645517 0.01089735 0.054076687 0.0037538013
0.031174928 0.081241906 0.07038132 -0.033941668 -0.05778665 0.035897046 -0.0122662885 -0.01668183
0.05842285 -0.06330022 -0.03305039 0.04941374
00000000: e6fe 983b f388 b1bd 988d 69bc fef7 6dbb
00000010: 9b31 053c 0d2e ce3c 1928 08bc 292a e1bd
00000020: 1a88 40bd 7770 573d bf6d 423b 4b39 3c3d
00000030: 516b 36bd 6ead ccbc 1e5e 273c 4ec2 7bbd
00000040: 10c2 3d3e f974 20bd e0de 60bd ca1f 863d
00000050: d563 76bd 6c29 c93d ae02 c2bc 4f12 c5bd
00000060: c622 67bc 6670 e5bd 89e6 79bd 1522 05bc
00000070: 89bf 253d ab86 c3bd ff08 e23d 9655 9ebd
00000080: 2512 a73d 0cd2 273d bf64 d53c 2dbd c93c
00000090: 2333 293d 1738 b7bd 1926 003d 01db d2bc
000000a0: 9235 43bd aa4c 9fbd 31fb 423c cc1e d0bd
000000b0: d773 aa3c 75ca 123d b4c5 3abd 80a8 6cbb
000000c0: 8087 db3d 92fd 2fbd 270b e03c a1da 8d3d
000000d0: f8db 5d3d a76b 68bd 6d92 bdbd 1159 823d
000000e0: ee1d fdbd 356b 403d 1eaf 173d fd5f 3abd
000000f0: fdb9 8ebb 054d 8a3d 6912 2ebc da71 8b3d
00000100: ab6a 943c 297d 4fbc bcd6 813c 6cc1 0bbe
00000110: ee09 84bd 4d5c b1bb 945b 08bd fae0 89bd
00000120: 7e94 83bd 0536 50bd 3d34 a4bd e346 c2bd
00000130: 0eef 4e3d d900 1dbd b86f 0e3d cd2c 81bd
00000140: a5a3 f93d dd1f 42bd e65f d73c 60f9 463d
00000150: 8794 9c3d cc8a 323c 847f 5d3d 5602 763b
00000160: 9062 ff3c 2862 a63d 1524 903d 6b06 0bbd
00000170: b2b1 6cbd c808 133d 8bf8 48bc 55a8 88bc
00000180: cc4c 6f3d 8ca3 81bd d95f 07bd 1066 4a3d

running_mean f4 [100]
0.31582433 0.15438482 0.21081978 0.23629782 0.23041892 0.27356088 0.3156168 0.37508363
0.23795144 0.22764657 0.32180014 0.36729175 0.20903356 0.15988167 0.262123 0.25179672
0.21351464 0.31077832 0.3928328 0.18284427 0.2727104 0.29736012 0.26853558 0.33140612
0.18941283 0.22182226 0.27688533 0.24371064 0.45898214 0.2569222 0.3138208 0.13015278
0.17203525 0.22583444 0.53431284 0.23870933 0.20959803 0.08758263 0.4294862 0.22353348
0.17419836 0.21460854 0.26375312 0.21733096 0.13986194 0.17858632 0.19127764 0.24966876
0.46119702 0.27941358 0.25845277 0.36086422 0.28467098 0.21633437 0.16962372 0.24254735
0.29675013 0.19770034 0.20566516 0.10765744 0.37975922 0.29688635 0.1305407 0.30846447
0.20942934 0.30612412 0.1998932 0.20385925 0.22873677 0.32254747 0.29247156 0.18535687
0.17748751 0.17533672 0.19004442 0.29056337 0.14156574 0.10789675 0.28907412 0.22624019
0.28143075 0.2648822 0.27411115 0.2396533 0.21435994 0.4046326 0.24223796 0.48818684
0.36516505 0.37643003 0.11091057 0.24963759 0.16775881 0.14568774 0.222087 0.4763346
0.27647877 0.258767 0.14395884 0.43772268
00000000: bab3 a13e 0e17 1e3e 24e1 573e 0ef8 713e
00000010: f0f2 6b3e 2c10 8c3e 8698 a13e f60a c03e
00000020: 8ba9 733e 2f1c 693e fdc2 a43e aa0d bc3e
00000030: e50c 563e 05b8 233e fc34 863e 80eb 803e
00000040: 95a3 5a3e 561e 9f3e 6121 c93e 873b 3b3e
00000050: b3a0 8b3e 963f 983e 7f7d 893e 10ae a93e
00000060: 70f5 413e 6025 633e eac3 8d3e 488f 793e
00000070: b5ff ea3e 4e8b 833e 1fad a03e c546 053e
00000080: 022a 303e 2541 673e bac8 083f 3870 743e
00000090: dea0 563e 865e b33d 9de5 db3e f6e5 643e
000000a0: 0e61 323e 57c2 5b3e a60a 873e 028c 5e3e
000000b0: f837 0f3e 55df 363e 49de 433e 2ba9 7f3e
000000c0: 0422 ec3e 4c0f 8f3e ec53 843e 32c3 b83e
000000d0: 65c0 913e c286 5d3e d7b1 2d3e 555e 783e
000000e0: a2ef 973e f571 4a3e e399 523e 817b dc3d
000000f0: cd6f c23e 7d01 983e 76ac 053e 0eef 9d3e
00000100: a574 563e 4dbc 9c3e ceb0 4c3e 7bc0 503e
00000110: f939 6a3e f124 a53e d5be 953e 31ce 3d3e
00000120: 49bf 353e 788b 333e 019b 423e b9c4 943e
00000130: 9cf6 103e f9f8 dc3d 8601 943e 82ab 673e
00000140: b117 903e a49e 873e 4c58 8c3e ad67 753e
00000150: 2c81 5b3e 012c cf3e 3a0d 783e a0f3 f93e
00000160: eaf6 ba3e 70bb c03e 1525 e33d ffa0 7f3e
00000170: f7c8 2b3e 2b2f 153e c66a 633e 21e2 f33e
00000180: a08e 8d3e 1c7d 843e f269 133e 301d e03e

running_var f4 [100]
0.17141385 0.0935431 0.11018771 0.08174969 0.051797416 0.08499015 0.11888562 0.21356228
0.10036851 0.115783766 0.15086277 0.108684175 0.058108296 0.061352503 0.056366168 0.20776646
0.06504487 0.26051283 0.2492716 0.053317815 0.16583657 0.06135836 0.14504912 0.20310973
0.079422764 0.08326691 0.14158592 0.1634248 0.261965 0.11315643 0.11726903 0.059216138
0.019541306 0.031109188 0.4088222 0.049526703 0.06242099 0.018261988 0.37479278 0.075119026
0.05941089 0.0871345 0.05525238 0.119433284 0.0438691 0.088976026 0.036402665 0.16484757
0.27289268 0.08325503 0.058305066 0.14011775 0.14151546 0.12808806 0.06327027 0.118978396
0.14657922 0.07302124 0.09963693 0.02659658 0.32363027 0.14381738 0.03255546 0.10276399
0.09168987 0.21307063 0.0545248 0.09036103 0.1388768 0.13030912 0.05121905 0.03589564
0.0945551 0.030556824 0.09139546 0.13926278 0.048370328 0.034755055 0.09907092 0.054358236
0.10206693 0.14593816 0.1378298 0.09709311 0.08926445 0.27812797 0.11585672 0.3193799
0.22925548 0.24258125 0.012259784 0.06952606 0.052450594 0.025356438 0.07596251 0.50748336
0.06206441 0.15797853 0.077084415 0.31976956
00000000: 1d87 2f3e 8693 bf3d 18aa e13d 626c a73d
00000010: 8729 543d 510f ae3d 4e7a f33d 12b0 5a3e
00000020: 018e cd3d 0a20 ed3d c57b 1a3e cf95 de3d
00000030: f702 6e3d c34c 7b3d 36e0 663d bbc0 543e
00000040: 3f36 853d f061 853e 0e41 7f3e c863 5a3d
00000050: 10d1 293e e752 7b3d c287 143e fffb 4f3e
00000060: 67a8 a23d d787 aa3d e6fb 103e d558 273e
00000070: 4720 863e 8fbe e73d bf2a f03d 9f8c 723d
00000080: 1715 a03c b2d8 fe3c 2551 d13e 83dc 4a3d
00000090: 27ad 7f3d 2a9a 953c d7e4 bf3e 01d8 993d
000000a0: d558 733d 9373 b23d 5250 623d 7099 f43d
000000b0: 16b0 333d 1039 b63d f61a 153d cdcd 283e
000000c0: 97b8 8b3e 9d81 aa3d 4bd1 6e3d 077b 0f3e
000000d0: 6ee9 103e 8429 033e d893 813d f2aa f33d
000000e0: dd18 163e 298c 953d 720e cc3d 12e1 d93c
000000f0: deb2 a53e dd44 133e e058 053d ed75 d23d
00000100: e6c7 bb3d 302f 5a3e 6655 5f3d 340f b93d
00000110: b835 0e3e c16f 053e 11cb 513d 4e07 133d
00000120: 1ba6 c13d 4e52 fa3c 8b2d bb3d e79a 0e3e
00000130: f71f 463d 515b 0e3d b2e5 ca3d bea6 5e3d
00000140: 7708 d13d d070 153e 4123 0d3e c1d8 c63d
00000150: 48d0 b63d ca66 8e3e 4a46 ed3d c385 a33e
00000160: f3c1 6a3e 3867 783e 43dd 483c ae63 8e3d
00000170: 6fd6 563d 4eb8 cf3c 3c92 9b3d 6eea 013f
00000180: 4037 7e3d 20c5 213e 6fde 9d3d d6b8 a33e

weight f4 [100, 100]
-0.015850237 0.068143316 0.10074559 -0.12973222 0.007801526 0.06796121 -0.044103947 -0.10793776
-0.00687115 -0.021231309 -0.028941762 -0.092947885 0.044722 0.008723034 0.034706283 -0.02924285
-0.06711014 -0.061183915 -0.13986078 0.018886926 -0.010778238 -0.036801696 0.08652973 -0.046807457
0.016344642 0.016141724 -0.025280729 0.0893487 0.042247716 0.050789308 -0.04823239 0.06864023
-0.090972744 0.026444182 0.08139399 -0.016316323 -0.020012822 -0.07996584 0.013375387 -0.0178376
0.050674655 0.017501784 0.11242025 0.12767139 -0.08122102 -0.047172718 0.015354051 -0.032721285
-0.060437102 0.06632442 0.079925574 0.016969712 -0.081736304 0.029292414 -0.01422021 0.07649304
0.05196065 -0.09066947 -0.10051325 0.067451164 0.0060283192 0.097617246 0.07643915 0.025969645
-0.06379207 0.027945474 0.015932329 0.042774417 0.12402926 -0.048110113 -0.11003354 -0.0016410196
-0.016958848 -0.018394852 -0.036937837 0.063626096 0.013825962 -0.06673895 -0.06365283 -0.030756164
-0.074259154 0.038313948 0.017750507 0.015812146 0.034178194 0.0046020583 0.045891054 -0.066197485
0.05865847 -0.1014091 -0.016610704 0.12839456 -0.10382224 -0.03600164 0.07655475 0.016077617
0.03152458 0.029379828 -0.1458073 -0.11224641 0.019241242 -0.035701595 -0.031519264 -0.1227064
-0.039191116 -0.05003794 -0.08299218 -0.07136927 -0.10118571 -0.102881745 -0.046903707 -0.0947661
0.09038048 0.0052332655 -0.037882105 -0.04011155 -0.048119362 -0.045118414 -0.0043880814 0.056198996
-0.08827068 0.07630237 -0.02660907 -0.10921084 -0.0056509175 -0.022091614 0.1365331 -0.010561914
0.041935757 0.027748274 0.084714286 0.078645505 -0.13231844 -0.010472428 0.019484594 -0.010285355
0.081591085 -6.427017e-05 0.017320553 0.05274528 0.034375537 0.025343234 0.026444914 0.12497785
0.04537635 0.037540194 0.0019458961 0.0055607758 -0.0025653169 0.055695854 0.0527883 -0.050314248
-0.04579907 -0.050583433 -0.021143131 0.0792492 0.011818827 -0.08984868 0.032861136 0.036566257
0.013904955 -0.09651739 -0.06586348 -0.037566584 -0.011700983 0.08007716 0.035373226 0.05377483
0.075198576 0.061946064 -0.0655062 -0.027166855 -0.059976358 0.05418498 -0.08698736 -0.107258916
-0.073272705 -0.08007767 -0.057552073 -0.063887075 0.042331867 0.0533694 -0.020872647 0.0479468
0.028722389 -0.08999477 0.0029077595 0.055306625 -0.055476025 -0.10625073 0.007844605 0.1148305
0.0330594 -0.08488164 -0.07964962 -0.07594998 -0.06032588 0.09688984 -0.061973754 -0.020275004
-0.025049435 -0.019395763 -0.083283216 -0.11336785 -0.05678522 -0.08836541 0.0030304133 -0.079759434
-0.08954819 -0.10000798 -0.07858687 -0.09236463 -0.04759103 0.05965701 0.03090758 -0.01781975
-0.03845511 -0.036532633 -0.07495704 0.008221154 -0.022209067 -0.057343 0.048213385 -0.01160929
-0.069923185 0.10958258 -0.07361573 0.04060602 -0.023354877 0.019665448 0.0375021 -0.021533154
0.012686871 -0.0122668175 -0.04934988 -0.015205452 -0.04474817 -0.0010152212 -0.06480061 -0.07609302
-0.038309168 0.072878174 0.029433014 0.04148534 -0.14057168 0.008509851 0.050186858 0.07410054
-0.03973052 -0.0026340738 0.088642485 0.09058227 -0.004011367 0.07485533 0.15034862 0.050789203
00000000: 5bd8 81bc b98e 8b3d b453 ce3d 86d8 04be
00000010: f2a3 ff3b 3f2f 8b3d 57a6 34bd 790e ddbd
00000020: 6227 e1bb 48ed adbc 4617 edbc 765b bebd
00000030: 6a2e 373d 0eeb 0e3c 2d28 0e3d b48e efbc
00000040: 0b71 89bd fc9b 7abd aa37 0fbe c1b8 9a3c
00000050: 3597 30bc 60bd 16bd 8036 b13d 2db9 3fbd
00000060: 33e5 853c a63b 843c 8819 cfbc 74fc b63d
00000070: f10b 2d3d 7308 503d 548f 45bd 4093 8c3d
00000080: eb4f babd 78a1 d83c e4b1 a63d cfa9 85bc
00000090: eef1 a3bc 21c5 a3bd 7024 5b3c 2920 92bc
000000a0: 3a90 4f3d e75f 8f3c 973c e63d 4abc 023e
000000b0: 3557 a6bd 2e38 41bd 8f8f 7b3c c106 06bd
000000c0: e58c 77bd 19d5 873d 05b0 a33d 1104 8b3c
000000d0: 5d65 a7bd a5f6 ef3c e2fb 68bc 62a8 9c3d
000000e0: b1d4 543d eab0 b9bd e4d9 cdbd d623 8a3d
000000f0: 3589 c53b 8deb c73d 218c 9c3d 4bbe d43c
00000100: 6ba5 82bd e8ed e43c 8484 823c 3a34 2f3d
00000110: 0d03 fe3d 1c0f 45bd 4459 e1bd 7b17 d7ba
00000120: 48ed 8abc cdb0 96bc 214c 17bd 664e 823d
00000130: 4a86 623c 6eae 88bd 6a5c 82bd 5af4 fbbc
00000140: 2f15 98bd 16ef 1c3d 8369 913c 7988 813c
00000150: 6ffe 0b3d ddcc 963b 42f8 3b3d 8c92 87bd
00000160: dd43 703d 93af cfbd 2c13 88bc dd79 033e
00000170: c1a0 d4bd 7576 13bd bdc8 9c3d 35b5 833c
00000180: eb1f 013d f7ad f03c 824e 15be 72e1 e5bd
00000190: cf9f 9d3c d63b 12bd 581a 01bd 7e4d fbbd
000001a0: dd86 20bd 95f4 4cbd cef7 a9bd 0d2a 92bd
000001b0: 743a cfbd aab3 d2bd 1a1e 40bd bb14 c2bd
000001c0: 6719 b93d d07b ab3b 442a 1bbd 024c 24bd
000001d0: cf18 45bd 16ce 38bd e5c9 8fbb eb30 663d
000001e0: 42c7 b4bd 6b44 9c3d 44fb d9bc efa9 dfbd
000001f0: 552b b9bb 79f9 b4bc 55cf 0b3e e10b 2dbc
00000200: d4c4 2b3d 5950 e33c af7e ad3d e510 a13d
00000210: 7c7e 07be 8c94 2bbc 289e 9f3c e883 28bc
00000220: 3a19 a73d c9c8 86b8 d5e3 8d3c 6f0b 583d
00000230: 5dcd 0c3d 9d9c cf3c 01a3 d83c 63f4 ff3d
00000240: 8ddc 393d bfc3 193d 700d ff3a 2b37 b63b
00000250: e01e 28bb 5621 643d 8b38 583d 5016 4ebd
00000260: ce97 3bbd 9330 4fbd 5c34 adbc 684d a23d
00000270: c1a3 413c 9602 b8bd 6699 063d 80c6 153d
00000280: 9cd1 633c e9aa c5bd 6fe3 86bd 6bdf 19bd
00000290: 7bb5 3fbc 7eff a33d 84e3 103d ff42 5c3d
000002a0: b601 9a3d 28bb 7d3d 1d28 86bd 068d debc
000002b0: c5a9 75bd 12f1 5d3d 6e26 b2bd 90aa dbbd
000002c0: 0010 96bd c3ff a3bd b9bb 6bbd 3ad7 82bd
000002d0: 2e64 2d3d df99 5a3d 1dfd aabc dd63 443d
000002e0: 374b eb3c 2e4f b8bd 1c90 3e3b 3389 623d
000002f0: d43a 63bd fc99 d9bd a886 003c 412c eb3d
00000300: 4b69 073d 6dd6 adbd 571f a3bd aa8b 9bbd
00000310: 4518 77bd 2e6e c63d 31d8 7dbd c417 a6bc
00000320: 7934 cdbc dde3 9ebc 6490 aabd 672d e8bd
00000330: 9e97 68bd edf8 b4bd e699 463b ea58 a3bd
00000340: 0b65 b7bd fcd0 ccbd 27f2 a0bd ab29 bdbd
00000350: d0ee 42bd e95a 743d e531 fd3c b9fa 91bc
00000360: 1b83 1dbd 3ea3 15bd 1483 99bd 05b2 063c
00000370: caef b5bc 7ee0 6abd 667b 453d e434 3ebc
00000380: e333 8fbd d56c e03d d8c3 96bd 7f52 263d
00000390: ba52 bfbc 6f19 a13c cd9b 193d 4c66 b0bc
000003a0: 98dc 4f3c c3fa 48bc 1a23 4abd 4a20 79bc
000003b0: db49 37bd 2c11 85ba 2fb6 84bd a8d6 9bbd
000003c0: 13ea 1cbd 2741 953d 811d f13c 88ec 293d
000003d0: 06f2 0fbe e76c 0b3c bc90 4d3d 06c2 973d
000003e0: 78bc 22bd 6da0 2cbb 318a b53d 3283 b93d
000003f0: c971 83bb c04d 993d fdf4 193e 5708 503d

bias f4 [100]
0.09610766 0.18227234 0.19285494 -0.08878218 -0.057261392 -0.063005514 0.01697392 0.0071993717
-0.057456505 0.0040404764 -0.053884085 -0.107757896 0.0871417 -0.10350894 0.042771276 0.022689097
0.028976133 0.029373284 -0.036595717 -0.09169735 0.021663373 -0.042503312 -0.065669194 0.09939796
-0.012987995 -0.026655484 0.035632316 0.018678881 0.124309994 0.008889107 -0.039171107 -0.022063533
0.0414974 -0.047956657 0.026947279 0.07077684 -0.023533184 0.118003875 0.017688118 -0.044345625
0.026130067 -0.09299068 0.06930422 0.032421716 0.0957456 -0.037144262 -0.0447015 -0.11677966
-0.07898851 -0.12729418 -0.116053 -0.10793094 -0.10395532 0.033195924 -0.123555504 0.04178553
-0.06647076 -0.06979879 -0.040974036 0.12645507 0.159369 -0.1228385 0.036882058 -0.07973751
-0.071977794 0.12437278 0.056356143 0.08035689 -0.09036126 -0.0554093 0.047104467 -0.11241205
0.017295862 0.07447382 0.0035531246 0.08129832 0.045597665 0.15030533 -0.03429761 -0.06702688
0.04265046 -0.02287278 -0.020676816 0.07078909 -0.13135436 -0.07902017 -0.14164042 0.0033449864
-0.040882796 0.04909789 -0.06967378 -0.11258675 0.009870548 0.032829285 0.20255175 0.043520242
0.026459785 -0.019401867 -0.0024080274 -0.13277295
00000000: 18d4 c43d 9aa5 3a3e c47b 453e 6ed3 b5bd
00000010: ec8a 6abd 0909 81bd e40c 8b3c b5e8 eb3b
00000020: 8357 6bbd f965 843b 8fb5 5cbd 2cb0 dcbd
00000030: 5977 b23d 7ffc d3bd ef30 2f3d 7cde b93c
00000040: 5b5f ed3c 3ea0 f03c 64e5 15bd d2cb bbbd
00000050: 6377 b13c f417 2ebd 927d 86bd 2891 cb3d
00000060: 99cb 54bc 9a5c dabc 31f3 113d 7404 993c
00000070: 3d96 fe3d 9ea3 113c e271 20bd 95be b4bc
00000080: 2df9 293d 336e 44bd 8ac0 dc3c 73f3 903d
00000090: aac8 c0bc 04ac f13d ace6 903c c2a3 35bd
000000a0: b90e d63c e671 bebd 5fef 8d3d a2cc 043d
000000b0: 4516 c43d 9524 18bd ec18 37bd 2d2a efbd
000000c0: bac4 a1bd 6859 02be 32ad edbd e60a ddbd
000000d0: 87e6 d4bd 73f8 073d ab0a fdbd 4e27 2b3d
000000e0: d221 88bd abf2 8ebd 64d4 27bd 707d 013e
000000f0: a131 233e c092 fbbd a411 173d 6b4d a3bd
00000100: 1869 93bd 28b7 fe3d b3d5 663d 2792 a43d
00000110: 530f b9bd ddf4 62bd 9df0 403d 4a38 e6bd
00000120: 0db0 8d3c bb85 983d 8adb 683b bc7f a63d
00000130: 9ec4 3a3d a4e9 193e a77b 0cbd 6445 89bd
00000140: 40b2 2e3d b25f bbbc 6d62 a9bc dff9 903d
00000150: c281 06be 54d5 a1bd 300a 11be 8f37 5b3b
00000160: b874 27bd de1a 493d 20b1 8ebd e293 e6bd
00000170: 14b8 213c 0078 063d ba69 4f3e 4842 323d
00000180: 31c2 d83c aaf0 9ebc ffcf 1dbb a2f5 07be

weight f4 [100]
0.93703204 0.98284316 1.0024605 1.082512 0.9851384 0.97843003 1.0078877 0.98430765
0.96888685 0.93824387 0.9937148 1.0171368 0.98596513 0.96521187 1.0148668 0.99342865
0.93449277 0.90029943 1.0305432 0.9996059 0.98922026 0.9938476 0.94168293 1.0035067
0.98491436 1.0112313 1.022034 0.9701305 0.9599139 0.92422295 0.95146185 0.9796585
0.97296154 0.9683092 1.0243245 1.0229014 0.9859542 0.95000666 0.9793791 0.94033957
1.0045911 1.0236193 1.0139155 0.9935452 1.0072094 0.9811264 0.9905948 0.9839652
0.9892686 1.0746664 0.9681717 0.9755716 0.9821333 0.9753447 1.0136318 0.94949824
0.9651067 0.996617 0.999338 0.9604781 0.9960355 0.9941928 0.98186105 1.0007782
0.9805605 1.012378 0.9875781 1.0147787 1.0177904 0.9851011 1.0184906 0.9635406
0.984162 0.97945225 1.0040681 0.9511546 0.9959124 0.9741219 1.041427 1.0147728
0.90554625 0.92332286 0.96217394 1.003507 0.98433197 0.973458 0.9478988 1.0230908
1.004264 0.97772306 1.0034329 0.989913 0.97469455 0.98840886 1.0424054 1.0124041
0.96283686 1.005714 0.9605332 0.989605
00000000: 55e1 6f3f 9c9b 7b3f a050 803f c18f 8a3f
00000010: 0832 7c3f 647a 7a3f 7702 813f 96fb 7b3f
00000020: f808 783f c030 703f 1864 7e3f 8a31 823f
00000030: 3668 7c3f 2018 773f 28e7 813f 5751 7e3f
00000040: eb3a 6f3f 067a 663f d7e8 833f 2ce6 7f3f
00000050: 8a3d 7d3f cc6c 7e3f 2212 713f e872 803f
00000060: 5923 7c3f 0770 813f 03d2 823f 795a 783f
00000070: ebbc 753f e099 6c3f 0193 733f e6ca 7a3f
00000080: 0214 793f 1de3 773f 111d 833f 6fee 823f
00000090: 7f67 7c3f a333 733f 97b8 7a3f 18ba 703f
000000a0: 7196 803f f505 833f fcc7 813f fa58 7e3f
000000b0: 3dec 803f 1a2b 7b3f 9f97 7d3f 25e5 7b3f
000000c0: b540 7d3f ab8e 893f 1ada 773f 0fbf 793f
000000d0: 176d 7b3f 31b0 793f b0be 813f 5112 733f
000000e0: 3c11 773f 4b22 7f3f 9dd4 7f3f e5e1 753f
000000f0: 2ffc 7e3f 6b83 7e3f 3f5b 7b3f 8019 803f
00000100: 0306 7b3f 9a95 813f ebd1 7c3f 45e4 813f
00000110: f546 823f 962f 7c3f e65d 823f 99aa 763f
00000120: 0af2 7b3f 62bd 7a3f 4e85 803f de7e 733f
00000130: 1df4 7e3f 0e60 793f 7b4d 853f 13e4 813f
00000140: e1d1 673f e35e 6c3f 0851 763f eb72 803f
00000150: 2efd 7b3f 8b34 793f 7fa9 723f a4f4 823f
00000160: b98b 803f 0f4c 7a3f 7d70 803f f06a 7d3f
00000170: 9585 793f 5d08 7d3f 8a6d 853f 7596 813f
00000180: 7a7c 763f 3dbb 803f 81e5 753f c156 7d3f

bias f4 [100]
-0.10881766 0.0932877 0.017295524 -0.03340986 -0.008448348 -0.047992323 -0.11172393 -0.11862269
0.06351433 0.03218278 -0.08787938 -0.09524711 0.14672515 0.01841094 0.05088999 0.032148335
0.0004590502 0.022883352 -0.07370623 0.1557885 -0.078017056 0.07632302 0.0591869 0.04938338
-0.05788867 0.11946101 0.04336741 0.10497001 -0.08353629 0.04350869 -0.076596595 -0.011216294
-0.1559164 -0.012618171 -0.10213 -0.05337766 -0.04229608 -0.043150734 -0.027419712 0.046377882
-0.06882529 -0.036998294 0.022152852 -0.032028783 -0.030773051 -0.060628038 0.0101121375 -0.09900245
-0.082735516 0.045442622 -0.069323085 -0.077588566 0.008653163 -0.037497025 0.05598033 0.061603677
0.04443638 -0.1290437 0.034083456 -0.03847929 -0.036281858 -0.08256706 -0.102195546 0.07485857
-0.03644424 0.1284724 -0.04049955 0.11429173 0.027572388 -0.08757812 0.06545249 -0.042011064
-0.09080554 -0.03534051 0.03162663 -0.0622107 -0.054971367 -0.12534647 -0.04471943 -0.022490866
-0.10193213 -0.01443338 0.0351851 0.050215963 0.003932655 -0.020670803 -0.04389693 -0.039881956
-0.11232614 -0.019833647 0.02040812 -0.019743647 -0.045037575 0.055359498 0.16848826 0.07557134
-0.10534303 0.07711739 -0.059524123 -0.079526596
00000000: cbdb debd 9f0d bf3d 58af 8d3c c7d8 08bd
00000010: f16a 0abc 9993 44bd 84cf e4bd 74f0 f2bd
00000020: cd13 823d 17d2 033d 1bfa b3bd eb10 c3bd
00000030: 1e3f 163e 8ad2 963c 0672 503d f9ad 033d
00000040: adac f039 de75 bb3c 4bf3 96bd 0587 1f3e
00000050: 68c7 9fbd 3e4f 9c3d f66d 723d 3a46 4a3d
00000060: ac1c 6dbd f9a7 f43d 06a2 313d 84fa d63d
00000070: 1315 abbd 2b36 323d adde 9cbd 8cc4 37bc
00000080: 8ca8 1fbe 72bc 4ebc 8929 d1bd 89a2 5abd
00000090: a83e 2dbd d3be 30bd 4e9f e0bc bcf6 3d3d
000000a0: 46f4 8cbd 868b 17bd e679 b53c 9d30 03bd
000000b0: c417 fcbc 1b55 78bd 61ad 253c ccc1 cabd
000000c0: 3d71 a9bd 0b22 3a3d 43f9 8dbd c1e6 9ebd
000000d0: ffc5 0d3c 7b96 19bd a14b 653d 2354 7c3d
000000e0: ec02 363d 0824 04be 189b 0b3d 769c 1dbd
000000f0: 499c 14bd eb18 a9bd e64b d1bd 734f 993d
00000100: 8e46 15bd 458e 033e dbe2 25bd c811 ea3d
00000110: 7ddf e13c 285c b3bd f40b 863d cb13 2cbd
00000120: 41f8 b9bd 36c1 10bd ed8a 013d a6d0 7ebd
00000130: a829 61bd d35a 00be b92b 37bd c43e b8bc
00000140: cbc1 d0bd fc79 6cbc 401e 103d 41af 4d3d
00000150: 80dd 803b d155 a9bc 44cd 33bd 435b 23bd
00000160: 3f0b e6bd 2c7a a2bc ee2e a73c 6ebd a1bc
00000170: 5279 38bd a4c0 623d 3088 2c3e 26c5 9a3d
00000180: 16be d7bd b9ef 9d3d 91cf 73bd d7de a2bd

running_mean f4 [100]
0.5867518 0.26997942 0.36948648 0.32513696 0.38311195 0.36275038 0.13024035 0.25368553
0.39424968 0.4042772 0.34129745 0.09526644 0.3508205 0.46409783 0.47917372 0.3514135
0.22671893 0.3057734 0.23598196 0.6123364 0.28752688 0.4315166 0.56707734 0.5660548
0.33593154 0.7730785 0.32432163 0.6363258 0.26208353 0.34994406 0.32484284 0.25888547
0.31865636 0.32941782 0.33643776 0.47778046 0.28905192 0.48221225 0.35527918 0.29382467
0.36222988 0.35264865 0.28783926 0.317588 0.4078428 0.37369534 0.17863584 0.42900816
0.31444204 0.34077013 0.38085002 0.2665589 0.55664027 0.34073776 0.68359184 0.47785246
0.35422245 0.21813607 0.46052682 0.42916802 0.57378465 0.41448537 0.27098846 0.50463814
0.3797635 0.61734295 0.3149246 0.44396338 0.29273155 0.3770498 0.4661199 0.279766
0.2784684 0.29214263 0.43696922 0.49601305 0.43637457 0.30843633 0.2812455 0.30410525
0.3244478 0.3219445 0.25144064 0.3290149 0.53492916 0.3527117 0.3175505 0.46141344
0.39190406 0.17538658 0.32728904 0.33470136 0.60000527 0.41960195 0.6951688 0.23710006
0.37862927 0.32433552 0.33181575 0.25857356
00000000: 5e35 163f be3a 8a3e 552d bd3e 5a78 a63e
00000010: 4027 c43e 6bba b93e ba5d 053e 12e3 813e
00000020: 18db c93e 6cfd ce3e 8abe ae3e 0d1b c33d
00000030: bf9e b33e 3b9e ed3e 4256 f53e 78ec b33e
00000040: 0229 683e 558e 9c3e 41a5 713e 14c2 1c3f
00000050: b936 933e beef dc3e fb2b 113f f8e8 103f
00000060: 38ff ab3e 79e8 453f 7c0d a63e 3fe6 223f
00000070: d02f 863e de2b b33e cd51 a63e a38c 843e
00000080: ed26 a33e 74a9 a83e 9241 ac3e a49f f43e
00000090: 9dfe 933e 86e4 f63e 27e7 b53e 3070 963e
000000a0: 3276 b93e 5d8e b43e ab5f 933e e59a a23e
000000b0: c5d0 d03e ff54 bf3e 50ec 363e f5a6 db3e
000000c0: 8cfe a03e 6c79 ae3e c6fe c23e 687a 883e
000000d0: fa7f 0e3f 2e75 ae3e e0ff 2e3f 14a9 f43e
000000e0: a55c b53e 105f 5f3e 2cca eb3e e9bb db3e
000000f0: 8de3 123f 6d37 d43e 00bf 8a3e f72f 013f
00000100: 5d70 c23e 300a 1e3f cc3d a13e 2b4f e33e
00000110: e9e0 953e ac0c c13e 44a7 ee3e 7d3d 8f3e
00000120: 6993 8e3e b893 953e 6eba df3e 6cf5 fd3e
00000130: 7d6c df3e 5eeb 9d3e 69ff 8f3e afb3 9b3e
00000140: 061e a63e e9d5 a43e d4bc 803e a474 a83e
00000150: 1ef1 083f a196 b43e fb95 a23e 623e ec3e
00000160: a6a7 c83e 8a98 333e 6e92 a73e fa5d ab3e
00000170: f299 193f 11d6 d63e 95f6 313f 5cca 723e
00000180: b2db c13e 4e0f a63e c1e3 a93e c163 843e

running_var f4 [100]
0.52344185 0.28098938 0.22230114 0.21996237 0.22305773 0.21756966 0.123753734 0.21149383
0.25089958 0.4063019 0.30542597 0.029201996 0.32552424 0.35559976 0.37000373 0.12083953
0.19530089 0.22377753 0.13663699 0.51443696 0.18101057 0.3516356 0.74791336 0.33513665
0.44147238 0.8125587 0.12542577 0.7627209 0.15455785 0.14003748 0.19112246 0.1932683
0.13690698 0.19980885 0.27647683 0.54548657 0.15177442 0.28561547 0.19972382 0.23441474
0.4275207 0.47296685 0.25762066 0.37996832 0.316277 0.41365 0.1107577 0.5547614
0.27806836 0.14073056 0.41078708 0.19866419 0.6753805 0.32200766 0.5857645 0.21665941
0.26613796 0.124719396 0.3971296 0.2964381 0.5415127 0.68774945 0.2946078 0.55862266
0.35121948 0.76139736 0.24222714 0.29028836 0.107262 0.15891522 0.2791206 0.27233326
0.13449968 0.46401286 0.26782438 0.32871822 0.42676958 0.22808516 0.25045016 0.21730842
0.32265887 0.082779236 0.114346616 0.20725304 0.5567867 0.24736653 0.18036115 0.5553917
0.4471309 0.111558355 0.3014749 0.16360965 0.70117533 0.46614778 0.7218867 0.12193021
0.28488976 0.13770372 0.31421736 0.13353293
00000000: 4900 063f d7dd 8f3e e9a2 633e d13d 613e
00000010: 3f69 643e 95ca 5e3e 9972 fd3d d791 583e
00000020: e975 803e cd06 d03e cb60 9c3e 0639 ef3c
00000030: 1dab a63e 2c11 b63e 2171 bd3e b77a f73d
00000040: f5fc 473e f025 653e 91ea 0b3e 24b2 033f
00000050: d65a 393e 9509 b43e 4077 3f3f 0897 ab3e
00000060: ab08 e23e d903 503f 9d6f 003e ad41 433f
00000070: 6a44 1e3e fc65 0f3e 9bb5 433e 20e8 453e
00000080: 5831 0c3e b19a 4c3e 5f8e 8d3e 02a5 0b3f
00000090: c16a 1b3e 313c 923e 6784 4c3e 6b0a 703e
000000a0: fee3 da3e b628 f23e dbe6 833e 358b c23e
000000b0: 0fef a13e efc9 d33e efd4 e23d d804 0e3f
000000c0: fa5e 8e3e ac1b 103e af52 d23e a06e 4b3e
000000d0: bde5 2c3f 30de a43e aaf4 153f f7db 5d3e
000000e0: 3c43 883e e26c ff3d 9254 cb3e bcc6 973e
000000f0: 94a0 0a3f 5910 303f d5d6 963e e501 0f3f
00000100: 0ad3 b33e f0ea 423f 640a 783e ada0 943e
00000110: 2eac db3d acba 223e e5e8 8e3e 446f 8b3e
00000120: 49ba 093e 1893 ed3e 4720 893e c14d a83e
00000130: 8b81 da3e 288f 693e 013b 803e 1986 5e3e
00000140: 8b33 a53e 2988 a93d 8f2e ea3d 243a 543e
00000150: 9389 0e3f a74d 7d3e 98b0 383e 272e 0e3f
00000160: 57ee e43e b578 e43d eb5a 9a3e 4a89 273e
00000170: 3a80 333f ecaa ee3e 91cd 383f 8cb6 f93d
00000180: 12dd 913e 3402 0d3e 19e1 a03e dbbc 083e
